cifar_net.pth (torch, 251391 bytes, 10 tensors)

conv1.weight f4 [6, 3, 5, 5]
0	0x3f059824	0.52185273
1	0x3f126ede	0.5720042
2	0x3ea72b0f	0.3265004
3	0x3eebac8d	0.46030083
4	0x3ea5b6e1	0.32366088
5	0x3dd17841	0.10228015
6	0x3e74ab2e	0.23893425
7	0x3de97e51	0.11401046
8	0x3e64d623	0.22347312
9	0x3da07abd	0.078359105
10	0xbe3a0874	-0.18167287
11	0xbe717c9a	-0.23582688
12	0xbe4ca73f	-0.19985674
13	0xbd380782	-0.044929035
14	0xbdd26193	-0.10272517
15	0xbe87786a	-0.26459056
16	0xbe9b72c0	-0.30360985
17	0xbe84b0de	-0.2591619
18	0xbe53d48b	-0.20686547
19	0xbe165fde	-0.14685008
20	0x3d2490df	0.040177222
21	0xbd3c6512	-0.045994826
22	0x3e17d7f2	0.1482847
23	0x3ddbcee4	0.10732821
24	0x3e4717c0	0.19442654
25	0xbe51dce6	-0.20494422
26	0xbe377a71	-0.17917801
27	0xbcf9171f	-0.030406533
28	0xbd6f5c16	-0.05843743
29	0xbe5fc51f	-0.2185254
30	0xbe5cd595	-0.2156585
31	0xbeae9e82	-0.34105307
32	0xbe7f072e	-0.24905083
33	0xbde47a42	-0.11156131
34	0xbe8848de	-0.26618093
35	0xbeab03b9	-0.33401278
36	0xbef98f4c	-0.4874214
37	0xbec812e6	-0.39076918
38	0xbe4c9713	-0.19979505
39	0xbdc89888	-0.09794718
40	0xbe1224e9	-0.14271893
41	0xbe46dda0	-0.1942048
42	0xbe02e3e3	-0.12782244
43	0xbe036a87	-0.12833606
44	0xbd3e40c0	-0.04644847
45	0x3e4db28c	0.20087641
46	0x3e47d91d	0.19516416
47	0x3e46bc01	0.19407655
48	0x3e92f186	0.28699893
49	0x3e2e432e	0.17017815
50	0xbd87b93d	-0.06627128
51	0x3c3d53dd	0.011555639
52	0xbd25b85f	-0.040459033
53	0x3d8748ac	0.06605658
54	0xbdb94151	-0.09045661
55	0xbda67d90	-0.08129418
56	0xbd4d3ae5	-0.050104994
57	0xbd3b3312	-0.045703
58	0x3d9b03cd	0.07569084
59	0xbd8fff1b	-0.070310794
60	0xbe309ea3	-0.17248015
61	0xbe3c48fa	-0.18387213
62	0xbe96b530	-0.2943511
63	0xbcb28eef	-0.021796672
64	0xbc92ddf7	-0.017928107
65	0xbd0a412a	-0.03375355
66	0x3db565f0	0.08857334
67	0x3cd77f32	0.026305769
68	0x3e1844e5	0.14870031
69	0x3def909a	0.116975024
70	0x3eb78fc0	0.3585186
71	0x3edb8c89	0.42880657
72	0x3e862edf	0.26207635
73	0x3eb49171	0.35267213
74	0x3e03ccf3	0.1287115
75	0x3d7e2e66	0.062055968
76	0x3d4bfa45	0.049799222
77	0xbdfa00da	-0.12207194
78	0x3dabb38c	0.08383855
79	0xbd90722f	-0.07053029
80	0x3e3d5ace	0.1849167
81	0xbe65131c	-0.22370571
82	0xbe4b2906	-0.19839868
83	0x3da63616	0.08115785
84	0xbd6aa15f	-0.0572828
85	0x3e33d7fc	0.1756286
86	0xbed306e9	-0.4121621
87	0xbeb1ed92	-0.34751564
88	0x3e90afcd	0.28259125
89	0x3dc9fdeb	0.09862884
90	0x3bda1010	0.006654747
91	0xbefec088	-0.49756265
92	0xbe69c3c5	-0.22828586
93	0x3e497c3e	0.19676301
94	0x3e92666c	0.28593767
95	0x3d6ebfc4	0.05828835
96	0xbe842f3a	-0.2581728
97	0xbde188d6	-0.110124275
98	0x3c3c0d2d	0.011477751
99	0x3e0c8bf0	0.13725257
100	0x3e063224	0.13105065
101	0x3cea2582	0.028582338
102	0xbdaa9372	-0.08328904
103	0x3d4642f9	0.048403714
104	0xbd9a3be2	-0.07530953
105	0x3e81624b	0.25270304
106	0xbe61f5fc	-0.22066492
107	0xbe1d7c84	-0.1537953
108	0x3ea784ce	0.3271851
109	0x3d84f997	0.06492918
110	0x3df2ff62	0.11865117
111	0xbebb979e	-0.36639112
112	0xbec13cae	-0.37741607
113	0x3ea022f4	0.31276667
114	0x3ea226a6	0.3167011
115	0x3e22d6c1	0.15902235
116	0xbefc25e6	-0.49247664
117	0xbe4c5ae5	-0.19956549
118	0x3e7f4339	0.24927987
119	0x3ef404d2	0.47659928
120	0x3c81d0f6	0.01584671
121	0xbe2d0c99	-0.16899337
122	0xbce8db3b	-0.02842485
123	0x3e0517a0	0.12997293
124	0x3e97d07f	0.29651257
125	0x3d2b6508	0.041844398
126	0xbd514965	-0.051095385
127	0x3cef63d0	0.029222399
128	0xbda3a4d5	-0.079904236
129	0x3cfdb85e	0.030971702
130	0x3da0d1c8	0.078525126
131	0xbe3bf667	-0.18355714
132	0xbe4c361a	-0.19942513
133	0x3dfbc84d	0.12294064
134	0x3d95a0a8	0.073060334
135	0x3e5e338f	0.21699356
136	0xbe922233	-0.28541717
137	0xbeb97b0b	-0.36226687
138	0x3e7c6255	0.24646886
139	0x3ea08ec3	0.3135892
140	0xbd8f5fee	-0.07000719
141	0xbeccd117	-0.40003273
142	0xbdf46a28	-0.1193431
143	0x3e6402f4	0.22266752
144	0x3e897f1d	0.26854792
145	0xbd0909ea	-0.03345672
146	0xbe90555b	-0.2819012
147	0xbe3913ac	-0.1807391
148	0x3e200817	0.15628086
149	0x3e82f473	0.25577125
150	0xbda45a9e	-0.08025096
151	0x3c5c5b7d	0.013449547
152	0xbd24a46a	-0.04019586
153	0xbd62ba13	-0.055353235
154	0xbda5bd54	-0.08092752
155	0xbe6c0dc6	-0.23052129
156	0xbea49663	-0.32145986
157	0xbeac162d	-0.3361067
158	0xbe840aae	-0.25789398
159	0xbe9c39d3	-0.30512866
160	0xbe708182	-0.23486903
161	0xbd95b8ac	-0.07310614
162	0xbe95d04f	-0.2926049
163	0xbda060db	-0.07830974
164	0xbe0c1062	-0.13678125
165	0xbe64b9d2	-0.2233651
166	0xbd8e14ce	-0.06937562
167	0xbdb7dfa4	-0.08978203
168	0xbd8d61a9	-0.06903393
169	0xbe6aacb0	-0.22917438
170	0xbe0e9067	-0.13922273
171	0xbe07739c	-0.13227695
172	0xbde031f0	-0.10947025
173	0xbe4cd378	-0.20002544
174	0xbe1042d5	-0.14087994
175	0xbd47198d	-0.04860835
176	0xbda6e2a3	-0.08148696
177	0xbcdb8419	-0.026796388
178	0x3cb59cb9	0.022169458
179	0x3ca162ee	0.019700494
180	0xbdb40485	-0.087899245
181	0xbd7fcd10	-0.062451422
182	0xbd905bea	-0.07048781
183	0x3cfaf9ad	0.030636633
184	0x3c1e0117	0.0096438145
185	0x3dc0e04f	0.094177835
186	0x3bce9461	0.0063043092
187	0x3df1b4ff	0.118021004
188	0xbd5c3de9	-0.05376998
189	0xbc5fd92a	-0.013662616
190	0x3d563a47	0.05230167
191	0x3db282a0	0.08716321
192	0x3cf8d2db	0.030373981
193	0x3da21f9a	0.07916184
194	0x3d4cc585	0.049993057
195	0xbdca73c8	-0.09885365
196	0xbd97f3cf	-0.0741955
197	0xbe2d2de5	-0.16912039
198	0xbe0cde5d	-0.137567
199	0x3a735982	0.0009283052
200	0x3e4483ec	0.19190949
201	0x3e4a1cc0	0.1973753
202	0x3d85097e	0.06495951
203	0x3e18d62b	0.14925449
204	0x3e3e3907	0.18576442
205	0x3d08a722	0.033362515
206	0x3e547c18	0.20750463
207	0x3e3b4def	0.18291448
208	0x3e50a99d	0.20377202
209	0x3e168753	0.1470006
210	0x3e9769ec	0.29573
211	0x3e815708	0.25261712
212	0x3dfcc4f4	0.12342253
213	0x3e40a89e	0.18814322
214	0x3e128d73	0.14311771
215	0x3e81b04c	0.25329816
216	0x3e2dd944	0.16977412
217	0x3e78868e	0.24270079
218	0x3eafd01b	0.3433846
219	0x3e175115	0.14777024
220	0x3d2d144d	0.04225569
221	0x3ac508b6	0.0015032503
222	0x3c39d537	0.011342338
223	0xb9f7e9ba	-0.0004728565
224	0x3e0de71e	0.13857695
225	0xbe4e1741	-0.20126058
226	0xbe04484d	-0.12918206
227	0xbe700dc6	-0.23442754
228	0xbe465115	-0.19366868
229	0xbe8f2481	-0.27957538
230	0xbdb82fcd	-0.08993492
231	0xbf098833	-0.5372345
232	0xbf217d2b	-0.63081616
233	0xbe87112e	-0.26380295
234	0xbdfc53fa	-0.12320705
235	0x3d857f7d	0.06518457
236	0x3e173efc	0.1477012
237	0x3eac54ef	0.3365855
238	0x3eee265d	0.46513644
239	0x3df21897	0.118210964
240	0x3e111f41	0.14172079
241	0x3efe4868	0.49664617
242	0x3f28212d	0.6567562
243	0x3ee818dc	0.45331466
244	0x3e720cf4	0.23637754
245	0xbdc3a298	-0.09552497
246	0xbea18b6f	-0.31551692
247	0xbecec3d1	-0.4038377
248	0xbe567ea8	-0.20946753
249	0xbe96cb56	-0.29452008
250	0x3e2e1f85	0.17004211
251	0x3e54e1c3	0.20789246
252	0x3e2d51e4	0.1692577
253	0xbcdbcd9c	-0.02683144
254	0x3dc98436	0.0983967
255	0xbd890b2b	-0.06691583

conv1.bias f4 [6]
0	0xbec456f0	-0.38347578
1	0xbe5aab77	-0.21354471
2	0x3eb10f25	0.34581867
3	0xbec243d8	-0.37942386
4	0x3e0535bf	0.13008784
5	0xbe7bb1fb	-0.24579613

conv2.weight f4 [16, 6, 5, 5]
0	0x3d0f4c9b	0.034985166
1	0x3cae7552	0.021296177
2	0x3deb71b6	0.11496298
3	0x3b764299	0.0037576316
4	0xbd20ebd5	-0.039287407
5	0xbe095511	-0.13411357
6	0xbdc03769	-0.09385569
7	0xbe298751	-0.16555525
8	0xbe0b644b	-0.13612477
9	0xbd41e4ff	-0.04733753
10	0xbe4b13c7	-0.19831763
11	0xbe36da94	-0.17856818
12	0xbe5e49d6	-0.21707854
13	0xbe14022b	-0.14453952
14	0xbe883c1f	-0.2660837
15	0xbce90b6a	-0.028447825
16	0x3be30084	0.0069275517
17	0x3d1bc56f	0.038030084
18	0xbda7c7eb	-0.08192428
19	0xbdba5264	-0.09097746
20	0x3e82d4e1	0.2555304
21	0x3ea9434a	0.3305915
22	0x3ed31b53	0.41231784
23	0x3eb21b1e	0.34786314
24	0x3e8b11cb	0.27162012
25	0x3ccd58f7	0.025066836
26	0x3d0e3f16	0.034728132
27	0xbe127398	-0.14301908
28	0x3b7a6801	0.0038208964
29	0xbd9154b4	-0.07096234
30	0x3b9159a9	0.004435737
31	0x3dc444b3	0.09583416
32	0xbdb1068f	-0.08643829
33	0x3d19f5a6	0.037587784
34	0xbd6e4913	-0.058175158
35	0xbb33a3c8	-0.0027410854
36	0x3bf685c0	0.0075232685
37	0xbe1e6451	-0.15467955
38	0x39cc223a	0.00038935413
39	0xbe0ddc28	-0.13853514
40	0xbd8d9c3f	-0.06914567
41	0xbcc57285	-0.024102459
42	0xbe1d3abd	-0.15354438
43	0xbd5bc058	-0.05365023
44	0xbe26f2e5	-0.16303594
45	0x3d84c8d4	0.064836174
46	0x3c9af5a7	0.018915964
47	0xbd97bc53	-0.07408967
48	0xbd2a4d8f	-0.041577872
49	0xbd98b5d4	-0.07456556
50	0xbd7ccaa8	-0.061716706
51	0xbccce00d	-0.02500918
52	0xbd8069b3	-0.062701605
53	0xbd9b93c7	-0.07596546
54	0xbd8d8ed0	-0.06912005
55	0x3bc42157	0.0059854197
56	0x3ab2e4e3	0.0013648536
57	0xbc308ccf	-0.010775759
58	0xbdab73f9	-0.083717294
59	0xbda52180	-0.0806303
60	0x3d198e51	0.03748924
61	0xbd4b4290	-0.049624026
62	0x3d4b6900	0.049660683
63	0xbd1a8849	-0.037727628
64	0xbd92de51	-0.0717131
65	0xbceea487	-0.029131187
66	0x3d8c23cc	0.06842765
67	0xbc7a347b	-0.015271301
68	0x3d9cf599	0.076640315
69	0xbc8bfe92	-0.017089162
70	0x3cff1b86	0.031141054
71	0xbd0dac59	-0.03458819
72	0x3c52e54f	0.012872054
73	0x3d6d068c	0.05786757
74	0x3d763a1f	0.060114022
75	0xbcd60b80	-0.02612853
76	0x3c107f22	0.008819373
77	0x3d9e28df	0.07722639
78	0x3dbb8c9e	0.0915768
79	0xbcb273aa	-0.021783669
80	0xbdbff4a2	-0.09372832
81	0x3cb7b640	0.02242577
82	0x3cfc9e1f	0.030837117
83	0x3d9d2b43	0.07674267
84	0x3dc64184	0.09680465
85	0xbe36da48	-0.17856705
86	0xbe4f003c	-0.20214933
87	0xbe421cf7	-0.18956362
88	0xbe1f4f81	-0.15557672
89	0xbde7d6b6	-0.1132025
90	0xbe439a48	-0.19101822
91	0xbd60c9fc	-0.054880127
92	0xbe4f6fcd	-0.20257492
93	0xbe2ac69f	-0.1667733
94	0xbdd172b3	-0.10226955
95	0xbcf8d5d0	-0.030375391
96	0xbd16720d	-0.03672986
97	0x3c0e64f2	0.008691059
98	0x3d8661b1	0.06561602
99	0xbcff7246	-0.03118242
100	0xbc7b66f0	-0.015344366
101	0xbc61f4fa	-0.013791317
102	0xbdb47fa0	-0.08813405
103	0x3c651c0c	0.013983738
104	0x3be98fbf	0.0071277316
105	0x3cf3088c	0.029667161
106	0x3d4d304e	0.050094895
107	0x3d648752	0.055793114
108	0xbdaafc60	-0.08348918
109	0xbd83317a	-0.06405921
110	0xbceae757	-0.028674765
111	0xbcb7fc98	-0.022459313
112	0x3dbbf311	0.091772206
113	0x3d975a62	0.07390286
114	0xbd397435	-0.04527684
115	0xbd368f9e	-0.044570558
116	0xbd494ab5	-0.04914351
117	0xbd7c770c	-0.06163697
118	0xbd5fa2b3	-0.05459852
119	0x3bed0759	0.007233542
120	0x3c894e2c	0.016760908
121	0x3d873afa	0.06603046
122	0x3b55fec6	0.0032653078
123	0xbd2c4d54	-0.042065933
124	0xbda9e287	-0.0829516
125	0x3d17ddf6	0.037076913
126	0xbcaf4251	-0.021393927
127	0x3c391423	0.011296305
128	0xbcdd8da6	-0.027045082
129	0x3c4d31f5	0.012524118
130	0x3d92738e	0.071509466
131	0xbddc3ce4	-0.107538015
132	0xbc8beb88	-0.017080083
133	0x3d4ffda7	0.05077901
134	0xbdbdd474	-0.09269038
135	0x3d514b48	0.051097184
136	0xbd2fdb96	-0.042934023
137	0xbdf30fc6	-0.11868243
138	0xbc7a0b6c	-0.015261512
139	0xbe34d6da	-0.17660084
140	0x3de90de5	0.11379603
141	0xbdcfddc6	-0.10149722
142	0x3c82946b	0.015939912
143	0x3b789ec2	0.0037936424
144	0xbc521d2b	-0.012824337
145	0x3da2c6c7	0.0794807
146	0xbcaf1c02	-0.02137566
147	0x3e04c461	0.12965538
148	0x3dbf8fcc	0.09353599
149	0x3e49e1ae	0.19714996
150	0xbdc54b89	-0.09633548
151	0x3caeac77	0.021322472
152	0xbdc602ec	-0.09668526
153	0x3cb03713	0.021510636
154	0xbe1701e7	-0.1474682
155	0xbdc8cb49	-0.098043986
156	0xbe2acfac	-0.16680783
157	0xbe03b2b7	-0.12861143
158	0xbdcb291e	-0.09919952
159	0xbcdc50cb	-0.026893994
160	0xbd3b02bc	-0.045656905
161	0xbd20a984	-0.039224163
162	0xbdef0b3c	-0.11672065
163	0xbe311662	-0.17293695
164	0xbca82717	-0.020526452
165	0x3e13d031	0.14434887
166	0x3e355a8c	0.17710322
167	0x3da2f736	0.07957308
168	0x3dc06003	0.09393313
169	0xbd35c451	-0.044376675
170	0x3dd90735	0.10597078
171	0x3d98f3e3	0.07468393
172	0x3d6af926	0.057366513
173	0x3bd894f1	0.006609552
174	0x3b3ddb45	0.0028969806
175	0x3c598150	0.013275459
176	0x3dfd4f6a	0.12368663
177	0x3d2fb1b8	0.042894095
178	0xbe2e58e7	-0.17026101
179	0xbe08e601	-0.1336899
180	0xbc060561	-0.008179993
181	0x3dde75ea	0.10862334
182	0x3e1dfe6c	0.15429085
183	0x3d07131a	0.0329772
184	0xbd8d3170	-0.06894195
185	0xbd16988f	-0.036766585
186	0xbe1d9631	-0.15389325
187	0x3d2de7ed	0.04245751
188	0x3e65cbea	0.22441068
189	0x3d7ce6c0	0.061743498
190	0x3d342ba9	0.04398695
191	0xbdfd588d	-0.12370405
192	0xbd933925	-0.07188634
193	0x3d997bac	0.07494292
194	0x3e5645f4	0.20925122
195	0xbdf220e1	-0.118226774
196	0x3d252b45	0.04032447
197	0xbcb149a9	-0.02164157
198	0xbdf84afb	-0.121236764
199	0x3d059bec	0.0326194
200	0x3e184028	0.14868224
201	0x3e5664d0	0.20936894
202	0x3e590b7a	0.21195784
203	0x3e07cbdd	0.13261361
204	0xbd6374b4	-0.05553122
205	0xbcb6d9cc	-0.02232065
206	0x3dfb8f22	0.1228316
207	0x3d823067	0.06356888
208	0x3dcadb7a	0.09905143
209	0xbe07bfd6	-0.13256773
210	0xbbb29b93	-0.005450675
211	0x3d8ea0f2	0.06964292
212	0x3dfa76cf	0.12229692
213	0x3da7015e	0.08154558
214	0xbdffcbd3	-0.12490048
215	0xbdb8a124	-0.0901511
216	0xbdb69461	-0.0891502
217	0xbdb16c3f	-0.086632244
218	0xbd6f5f14	-0.058440283
219	0xbde13855	-0.109970726
220	0xbdee312a	-0.11630471
221	0xbe075878	-0.13217342
222	0xbda3e104	-0.08001903
223	0xbe15945e	-0.14607379
224	0xbd97f96d	-0.07420621
225	0xbb8cff18	-0.0043028705
226	0xbe0b143b	-0.13581936
227	0x3d689c65	0.056789774
228	0xbca1ea10	-0.01976493
229	0xbde27b78	-0.11058706
230	0xbe1a5b94	-0.15073997
231	0xbd8d9b76	-0.069144174
232	0xbdbd383b	-0.09239241
233	0xbcc08638	-0.0235015
234	0xbd7536f8	-0.059866875
235	0xbd3491ee	-0.044084482
236	0xbd75da20	-0.060022473
237	0xbd2071a7	-0.039170887
238	0xbcced30e	-0.025247123
239	0xb509dc00	-5.135662e-07
240	0x3de73c2c	0.11290774
241	0x3c860329	0.016358929
242	0xbd8787bd	-0.06617687
243	0xbd43b318	-0.04777822
244	0x3d6dd182	0.05806113
245	0x3dab5be6	0.083671376
246	0x3e0b075d	0.13577028
247	0x3d4ff611	0.050771777
248	0xbcbbb3f9	-0.022912966
249	0xbe25de55	-0.16198094
250	0x3e48038e	0.19532606
251	0x3e39f604	0.18160254
252	0x3e57dcb0	0.2108028
253	0x3e5c2fff	0.21502684
254	0x3e064ad1	0.13114478
255	0xbd892fc7	-0.06698566

conv2.bias f4 [16]
0	0xbe53ebbd	-0.20695396
1	0xbec79fdc	-0.3898915
2	0x3eb86832	0.36016995
3	0x3f82af19	1.0209686
4	0xbf04b637	-0.5184054
5	0xbba3f37a	-0.00500339
6	0xbcc57552	-0.024103794
7	0x3e74938c	0.2388441
8	0xbe59a64a	-0.2125484
9	0x3e3e4733	0.18581848
10	0xbefce514	-0.49393523
11	0x3ebf01ea	0.37306148
12	0xbdf64659	-0.120251365
13	0xbe682a52	-0.22672394
14	0x3f3e5c50	0.7435961
15	0xbf0ae166	-0.5425018

fc1.weight f4 [120, 400]
0	0x3d383726	0.04497447
1	0xbd4e6b47	-0.050395276
2	0xbc5cf7f7	-0.013486854
3	0x3d584d89	0.05280832
4	0xbbc67ebe	-0.0060575893
5	0x3ca38e0c	0.019965194
6	0x3d954ceb	0.072900616
7	0x3d74470f	0.05963808
8	0xbbb123a0	-0.005405858
9	0x3d3f16ee	0.046652727
10	0x3d808e8e	0.0627719
11	0x3d9da288	0.07697016
12	0x3ded6353	0.1159121
13	0x3cbc57e2	0.022991125
14	0x3c99d5d9	0.018778728
15	0x3d818ff6	0.063262865
16	0x3d4a77ad	0.049430538
17	0xb82d92dc	-4.1383188e-05
18	0x3d36e53a	0.0446522
19	0x3dc7245f	0.09723734
20	0x3d733eda	0.05938611
21	0xbbb0f55f	-0.0054003443
22	0x3d20c70d	0.03925233
23	0x3ca44f8d	0.020057464
24	0x3d874175	0.06604282
25	0x3c4fe194	0.012688059
26	0x3d7c370c	0.061575934
27	0x3bd92e24	0.006627815
28	0x3d1df14b	0.038560193
29	0x3c0c9b72	0.008581983
30	0xbd4a2ab1	-0.04935712
31	0x3da287ad	0.07936034
32	0x3db8c820	0.09022546
33	0xbc4bd311	-0.012440459
34	0xbd3750e3	-0.044754874
35	0x3d328bea	0.043590464
36	0x3db342e7	0.08752995
37	0x3de94b02	0.1139126
38	0x3da93c5b	0.08263465
39	0x3c527c62	0.012847038
40	0xbc87523a	-0.0165187
41	0xbcee0af2	-0.029057954
42	0x3db2de6d	0.087338306
43	0x3dc8fa33	0.09813347
44	0x3cfade44	0.030623563
45	0xbdeeaa3c	-0.116535634
46	0xbabc04b4	-0.0014344663
47	0x3d16e2a1	0.036837224
48	0xbca8a8bb	-0.02058827
49	0x3cafc50d	0.021456266
50	0x3c6e8985	0.014559154
51	0xba9493bf	-0.0011335536
52	0xbd553d09	-0.05206016
53	0xbd03299c	-0.032022104
54	0x3ad8b5ab	0.0016533633
55	0x3b904f55	0.0044039884
56	0x3d815dee	0.06316744
57	0xbd12974e	-0.035788827
58	0xbd2dcebc	-0.042433485
59	0xbcd82468	-0.026384547
60	0x3d3f2016	0.04666146
61	0x3d600d1e	0.05470001
62	0x3d8bd9f4	0.06828681
63	0xbce8f21b	-0.028435757
64	0xbc656d8d	-0.01400317
65	0x3c96ff68	0.018432334
66	0x3d739e7c	0.059477314
67	0xbca62d4e	-0.020285275
68	0xbab764f0	-0.0013991874
69	0x3cde9c53	0.02717415
70	0xbd9268d8	-0.071489036
71	0xbdebe811	-0.115188725
72	0xbd98f824	-0.07469204
73	0xbce33a47	-0.02773775
74	0xbcbd87ca	-0.023136038
75	0xbcdddd73	-0.027083134
76	0x3bd38934	0.006455565
77	0x3c00ad51	0.007853822
78	0xb9b98131	-0.00035382205
79	0x3d453b33	0.04815216
80	0xbcdea0f6	-0.027176362
81	0x3ca7674b	0.020434996
82	0xbd79d145	-0.06099059
83	0xbdc212c7	-0.09476238
84	0x3bfe95c1	0.007769317
85	0x3c912271	0.017716618
86	0xbd87df8a	-0.066344336
87	0xbc8ac4c5	-0.01693953
88	0xbcd1ea4a	-0.025624413
89	0xbd3cc785	-0.046088714
90	0xbb4a271e	-0.003084607
91	0xbc6db874	-0.014509309
92	0xbd1fdf61	-0.03903139
93	0xbb7f91a6	-0.0038996725
94	0x3d6c3c97	0.05767497
95	0x3e1052d2	0.14094093
96	0x3d271c1d	0.040798295
97	0x3da03b78	0.07823843
98	0x3e11c9b3	0.14237098
99	0x3e21b188	0.15790379
100	0xbd28f545	-0.041249532
101	0xba5d1147	-0.00084330555
102	0x3d33d6ee	0.043906145
103	0x3d324b7f	0.04352903
104	0x3cda99cf	0.02668467
105	0x3d3d2c17	0.046184625
106	0x3d8349ff	0.06410598
107	0x3cff1fb4	0.031143047
108	0xbb3c170a	-0.0028700256
109	0x3d46b148	0.048508912
110	0x3c8c03c7	0.017091645
111	0xbc63ff67	-0.013915873
112	0xbcc22729	-0.023700314
113	0xbcfd896d	-0.030949319
114	0xbc146666	-0.009057617
115	0xbda4c1fe	-0.080448136
116	0xbcdf7c8a	-0.027281065
117	0xbda95a22	-0.082691446
118	0xbd732a1f	-0.05936634
119	0x3c07ee22	0.008296521
120	0xbcd59b5f	-0.026075063
121	0xbb72362a	-0.0036958554
122	0xbce2d2a2	-0.027688328
123	0xbdaa6d23	-0.083215974
124	0xbd548759	-0.05188689
125	0xbd18d423	-0.037311684
126	0xbd16bd54	-0.03680165
127	0x3d21be0e	0.03948789
128	0xbb863def	-0.0040967385
129	0xbd86f18f	-0.065890424
130	0xbdbd6aaa	-0.0924886
131	0x3cdc6a09	0.02690603
132	0x3d8fd7fc	0.070236176
133	0x3c23ec21	0.010005028
134	0xbd1ac305	-0.03778364
135	0xbd5ce5ed	-0.05393021
136	0x3d6f991e	0.058495633
137	0x3d18c354	0.037295654
138	0x3cee9898	0.029125497
139	0x3cb68c1a	0.022283603
140	0xbcb18b82	-0.021672968
141	0xbd0eb321	-0.0348388
142	0xbd25a803	-0.04044343
143	0x3d89efb9	0.067351766
144	0x3d336a7d	0.043802727
145	0xbe136144	-0.14392573
146	0xbdf3b6ff	-0.11900138
147	0xbbfea678	-0.0077713095
148	0xbd43fdf6	-0.047849618
149	0x3c656a68	0.01400242
150	0xbc90e75b	-0.017688444
151	0x3dbbe43e	0.09174393
152	0x3d9fa3fb	0.07794949
153	0x3d1077ac	0.035270378
154	0x3c3e1cbf	0.011603533
155	0xbd3aca13	-0.04560287
156	0x3e14e9ca	0.14542308
157	0x3dcec718	0.10096568
158	0x3c1b9cf5	0.009497871
159	0x3c8fdde8	0.017561868
160	0x3d1ce17c	0.038300976
161	0x3bd4c754	0.0064934883
162	0x3c0e5b9c	0.008688834
163	0x3d45e4a0	0.048313737
164	0xbbd46f1c	-0.006482972
165	0x3a63aeaa	0.000868539
166	0x3cc3b80f	0.023891477
167	0x3ca48db4	0.0200871
168	0xbca6c5a0	-0.020357907
169	0xbcc45b1f	-0.023969231
170	0xbddf728f	-0.10910522
171	0xbc8d472b	-0.01724585
172	0x3cc7914b	0.024361273
173	0xbd8b6f8a	-0.06808384
174	0xbe0a2bae	-0.13493225
175	0x3d3c38f9	0.04595277
176	0x3d6d9175	0.058000047
177	0xbbac2a8e	-0.0052540964
178	0xbc3fa591	-0.011697189
179	0xbcfc8954	-0.030827202
180	0x3b1470cd	0.0022650242
181	0x3a2e98ad	0.00066603237
182	0xbbd5a4b9	-0.0065198806
183	0x3d0fb122	0.035081036
184	0x3d17d8a7	0.03707185
185	0x3d7c3f23	0.06158365
186	0x3cb55f09	0.022140043
187	0xbcac3655	-0.021022001
188	0x3c3c8685	0.011506681
189	0x3cd462d8	0.025926039
190	0x3b63c374	0.003475395
191	0x3d1fd031	0.039016906
192	0x3cb81be8	0.022474244
193	0x3cd67f1a	0.026183654
194	0xbd3e10bd	-0.04640268
195	0xbcd20d97	-0.025641246
196	0xbd67065e	-0.056402557
197	0xbd9ffbf0	-0.07811725
198	0xbd00c2c7	-0.031435754
199	0xbda7ba2b	-0.081898056
200	0xbd3e0334	-0.046389773
201	0x3d1119af	0.035424884
202	0xbd11b4be	-0.03557276
203	0x3d0bcadb	0.034129005
204	0x3d4f69e5	0.0506381
205	0xbbb79286	-0.0056021838
206	0xbb23266d	-0.002489473
207	0xbce758da	-0.02824061
208	0x3d5f19d8	0.054468006
209	0xbc6ba842	-0.0143833775
210	0xbab68d11	-0.0013927539
211	0x3d7bf75a	0.06151519
212	0x3d15307c	0.03642319
213	0x3d94e349	0.07269914
214	0x3d125db2	0.035733886
215	0xbcf2cc8f	-0.029638557
216	0x3d9949ae	0.074847564
217	0x3d9126d9	0.07087488
218	0x3a027e4e	0.00049779273
219	0xbd3df825	-0.046379227
220	0x3da05a25	0.07829694
221	0x3dd9726b	0.106175266
222	0x3d933a1e	0.07188819
223	0xbc334bfd	-0.01094341
224	0x3cfb7540	0.030695558
225	0x3c3ca9f4	0.011515129
226	0x3c593cff	0.0132591715
227	0x3dfe8a58	0.12428731
228	0x3d3138db	0.043267112
229	0x3d4d0892	0.050057
230	0x3c5af5cd	0.013364268
231	0x3d2a259c	0.041539773
232	0x3dbf5ffd	0.0934448
233	0x3bab37d5	0.0052251616
234	0xbd0bb074	-0.034103826
235	0xbca9ace0	-0.020712316
236	0xbd833d01	-0.0640812
237	0x3c974549	0.018465655
238	0xbcd7d0e6	-0.026344728
239	0xbda327ad	-0.07966552
240	0x3d07e954	0.033181503
241	0x3d2c05d4	0.041997746
242	0xbcb13846	-0.021633279
243	0x3b0459ce	0.002019513
244	0xbd4284fd	-0.04749011
245	0x3c081e82	0.008308055
246	0x3cb8a1a7	0.02253802
247	0xbdc0ed75	-0.09420291
248	0x3c9e8761	0.019351663
249	0xbd3434c8	-0.04399565
250	0xbd63cbc7	-0.05561426
251	0xbda2fcf6	-0.07958405
252	0x3c24fdb3	0.010070252
253	0x3af30414	0.0018540644
254	0x3db9e7c2	0.090774074
255	0xbd81fc74	-0.0634698

fc1.bias f4 [120]
0	0x3dbdfb0d	0.092764
1	0x3d0bd9b8	0.03414318
2	0xbdbf20b1	-0.09332407
3	0x3dfca636	0.1233639
4	0x3d97070b	0.0737439
5	0xbd4c4365	-0.04986896
6	0x3d6bce5f	0.057569858
7	0xbc9bc744	-0.019015916
8	0xbb370397	-0.0027925724
9	0x3db65306	0.08902554
10	0xbc8f40e9	-0.017487006
11	0x3cdb1edd	0.026748115
12	0x3e0b5b42	0.13609031
13	0xbda4e973	-0.080523394
14	0xbd7d87aa	-0.061896957
15	0x3dbb7589	0.091532774
16	0xbe4cac5f	-0.1998763
17	0xbc81feb1	-0.015868517
18	0x3d43d862	0.04781378
19	0xbe32bccf	-0.17454837
20	0x3e4d16f8	0.20028293
21	0x3b95f01a	0.0045757415
22	0x3d5ff465	0.054676432
23	0x3dfb2c98	0.12264365
24	0x3d90b7bd	0.07066295
25	0x3d7ca15b	0.061677318
26	0x3e538af9	0.20658483
27	0x3dc1e43e	0.09467362
28	0x3e6f8257	0.23389564
29	0x3e87ac6c	0.26498735
30	0xbc25c656	-0.010118088
31	0xbd251861	-0.040306453
32	0xbbfb47c6	-0.007668468
33	0xbd38142b	-0.04494111
34	0xbd15c54d	-0.036565114
35	0x3e81bed0	0.2534089
36	0x3d037f1c	0.032103643
37	0x3b93d9f3	0.0045120656
38	0x3c9d3bda	0.019193579
39	0xbd24768f	-0.04015213
40	0x3e30552c	0.1721999
41	0xbd776f78	-0.06040904
42	0x3dc7f97a	0.09764381
43	0x3e0473be	0.12934777
44	0xbdcfd366	-0.10147743
45	0xbd0befb2	-0.03416414
46	0xb9eabbd9	-0.00044771915
47	0xbd1edf8c	-0.03878741
48	0x3e51dd14	0.20494491
49	0x3d812e33	0.0630764
50	0x3dac50d5	0.08413855
51	0xbdbe1561	-0.092814215
52	0xbcd48c80	-0.025945902
53	0xbcae64e5	-0.021288345
54	0x3d15fd09	0.036618266
55	0x3c93862f	0.01800832
56	0x3cf58fab	0.029975733
57	0x3dcbd0b5	0.09951917
58	0x3e236c16	0.159592
59	0x3c10580a	0.008810053
60	0x3d997d33	0.07494583
61	0x3cb69a89	0.022290485
62	0x3e0bef8c	0.13665599
63	0x3e17b065	0.14813383
64	0xbc529036	-0.012851765
65	0xbdac3ebf	-0.08410405
66	0xbd8df392	-0.06931223
67	0x3a95ede7	0.0011438698
68	0x3c2fa577	0.010720602
69	0xbcb3e8e7	-0.021961642
70	0x3c9ca7e5	0.019123027
71	0xbcf16ea2	-0.0294717
72	0xbd27c2fc	-0.040957436
73	0x3d1c88bb	0.038216334
74	0xbc856175	-0.016281823
75	0x3e233245	0.15937145
76	0xbbd17970	-0.0063926503
77	0x384b8758	4.852502e-05
78	0x3d341b62	0.043971427
79	0xbca50e29	-0.020148354
80	0x3d233512	0.039845534
81	0xbd415940	-0.047204256
82	0x3c4f333a	0.012646491
83	0x3d290625	0.041265626
84	0xbd4c7917	-0.049920168
85	0xbca4f7ab	-0.020137629
86	0xbe385a01	-0.18003084
87	0x3c556a2b	0.013025801
88	0xbe118f24	-0.1421476
89	0x3df8cbe4	0.12148264
90	0xbc292df1	-0.010325895
91	0x3cc9aae0	0.024617612
92	0x3de54cbb	0.11196276
93	0x3cc89492	0.024484906
94	0x39803099	0.0002445027
95	0xbdc7093c	-0.09718558
96	0x3e376a17	0.17911564
97	0x3e0f82bb	0.14014713
98	0x3d1ab54f	0.037770566
99	0x3d828be8	0.06374341
100	0xbb8a0293	-0.0042117327
101	0xbdd16358	-0.102240264
102	0x3dd75cc2	0.10515739
103	0x3c45fe5d	0.012084571
104	0x3cad0b81	0.02112365
105	0x3b94fc5b	0.0045466847
106	0xbd059a1e	-0.03261768
107	0xbdb15d3d	-0.08660362
108	0x3e48f7d9	0.19625796
109	0xbd4a38b5	-0.049370486
110	0x3d98b3d6	0.07456176
111	0x3d9a5d69	0.07537348
112	0xbd7aefa3	-0.06126369
113	0x3d70a8c2	0.05875469
114	0xbe23dbcf	-0.16001819
115	0xbe2dd328	-0.16975081
116	0xbb2eb0c0	-0.0026655644
117	0x3d9522c4	0.07282022
118	0xbd8ccb2e	-0.06874691
119	0x3d2a015d	0.041505206

fc2.weight f4 [84, 120]
0	0xbcad8e6d	-0.021186078
1	0x3ca5fd0a	0.02026226
2	0xbbca2334	-0.0061687473
3	0x3dc2c041	0.09509326
4	0x3ac8bf5a	0.0015315816
5	0xbc3272d7	-0.010891638
6	0x3d324b91	0.043529097
7	0x3ca53cf8	0.020170674
8	0x3b83fe73	0.0040281354
9	0x3cd86f9b	0.026420405
10	0x3d34220f	0.043977793
11	0x3d183f71	0.037169877
12	0x3ceb4a1f	0.028721867
13	0xbe2051f0	-0.15656257
14	0xbdeeb028	-0.11654693
15	0x3c04754b	0.008084605
16	0xbe252894	-0.1612876
17	0x3d87e09b	0.06634637
18	0xbe1f3e10	-0.15551019
19	0xbe0c9922	-0.1373029
20	0x3caa51f7	0.020791037
21	0x3d0c4d12	0.034253187
22	0xbdbe58a2	-0.09294249
23	0x3d02201c	0.031768903
24	0xbcae8de8	-0.0213079
25	0xbd88f73b	-0.066877805
26	0xbd8f7d2d	-0.07006297
27	0x3c96710f	0.018364457
28	0xbdc95a5a	-0.09831686
29	0x3e1af991	0.15134265
30	0xb9da468e	-0.00041632768
31	0xbbe3bc96	-0.0069499714
32	0xbdeb1a41	-0.11479617
33	0x3d0291a2	0.031877168
34	0xbb95c861	-0.004571006
35	0xbcb105d7	-0.02160923
36	0x3c0b0183	0.008484247
37	0x3d8fa07e	0.07013033
38	0x3c1227b0	0.008920595
39	0xbdd96139	-0.10614247
40	0xbd54c903	-0.051949512
41	0xbd9d47c3	-0.07679703
42	0x3e029674	0.12752706
43	0x3ce6d010	0.028175384
44	0xbdea2e5c	-0.114346236
45	0x3d963500	0.07334328
46	0x3db099ff	0.086231224
47	0xbd970130	-0.073732734
48	0x3e48481c	0.19558758
49	0xbceb98b1	-0.028759332
50	0xbd0e60cd	-0.034760285
51	0xbd03ebdb	-0.03220735
52	0xbcb56e90	-0.022147447
53	0x3c9c4b67	0.019078923
54	0x3d073aac	0.03301494
55	0x3d3cc539	0.046086524
56	0x3c1fa4f0	0.009743914
57	0xbd4f8c93	-0.05067117
58	0x3d0b148c	0.033955142
59	0x3da01e4c	0.07818279
60	0x3cda367a	0.026637305
61	0xbdf223a2	-0.11823203
62	0xbd7c7bb1	-0.0616414
63	0xbd62b59b	-0.055348974
64	0x3c9a62b0	0.018845886
65	0x3d82b051	0.06381286
66	0x3b662c0f	0.0035121476
67	0x3d2101f2	0.039308496
68	0xbda2d380	-0.07950497
69	0xbcce3f53	-0.02517668
70	0x3d0ad9b4	0.033899024
71	0x3d65a63f	0.056066748
72	0x3dda1f48	0.10650498
73	0xbd624831	-0.05524463
74	0x3d2be57c	0.0419669
75	0x3d90ba2f	0.07066762
76	0x3cb88881	0.022526028
77	0xbd3bdbc1	-0.04586387
78	0x3dea94cb	0.11454161
79	0xbd321439	-0.043476317
80	0x3d512eac	0.0510699
81	0xbddd2afc	-0.10799214
82	0x3d05c286	0.032656215
83	0x3dc1905c	0.094513625
84	0xbd2347d9	-0.03986344
85	0x3e280f68	0.16412127
86	0xbdff531b	-0.12467023
87	0x3d5effad	0.05444305
88	0xbd4c04e4	-0.04980935
89	0x3e0fb974	0.14035589
90	0xbcf1db1c	-0.029523425
91	0xbd78d56e	-0.060750417
92	0xbd9a529d	-0.075352885
93	0x3d96a93e	0.07356499
94	0x3da6b695	0.081402935
95	0x3d8e37d1	0.0694424
96	0x3d9336d6	0.071881935
97	0x3ddd1982	0.10795881
98	0x3d3c8b80	0.046031475
99	0x3d4b11f1	0.049577657
100	0x3c9e37a1	0.019313635
101	0xbdac8d8d	-0.08425436
102	0xbd874eda	-0.066068366
103	0x3d2b39cb	0.041803163
104	0xbccbacef	-0.024862735
105	0xbd7b0fcf	-0.061294373
106	0xbda93018	-0.08261126
107	0xbe014520	-0.12624025
108	0x3e0ef475	0.1396044
109	0xbca82d24	-0.020529337
110	0xbc9c19f9	-0.019055353
111	0x3d68f63c	0.056875452
112	0x3d436e31	0.04771251
113	0x3dcb364c	0.09922466
114	0xbd864b34	-0.065573126
115	0xbc1f7196	-0.009731671
116	0xbd72791a	-0.059197523
117	0x3d971090	0.07376206
118	0x3d6a67fa	0.057228066
119	0xbd8621eb	-0.06549438
120	0x3dab93e1	0.08377815
121	0x3c5535ce	0.013013316
122	0x3c6b18cc	0.014349174
123	0xbcd2038a	-0.025636453
124	0xbd9b5cd9	-0.07586069
125	0xbdd80f73	-0.10549822
126	0x3d289cdb	0.041165214
127	0xbcb871f1	-0.022515269
128	0x3b391c4a	0.0028245621
129	0x3d30f4d4	0.043202236
130	0x3d5e53f3	0.05427928
131	0x3d9b7419	0.07590503
132	0x3d2b2e61	0.041792277
133	0x3b4ea4c8	0.0031531323
134	0x3d633673	0.05547185
135	0xbcc05e3e	-0.023482438
136	0xbd6e3f43	-0.0581658
137	0x3dfc282d	0.123123504
138	0x3af85afb	0.0018948013
139	0xbc969157	-0.01837985
140	0x3d174bc2	0.036937483
141	0x3d9bdf27	0.07610922
142	0xbbbfa3e5	-0.005848395
143	0xbe0194b9	-0.1265439
144	0x3d57fc1f	0.052730676
145	0x3bb7573b	0.0055951155
146	0xbc9c8ecc	-0.01911106
147	0xbcdce7f6	-0.026966076
148	0xbda05c05	-0.07830051
149	0xbddca576	-0.10773747
150	0x3d5ef621	0.054433946
151	0xbd57158c	-0.052510783
152	0x3d8f336a	0.06992228
153	0x3bec1d94	0.0072056744
154	0xbc97c5c7	-0.018526925
155	0x3d4ab741	0.04949117
156	0x3d160891	0.036629263
157	0xbdd8c13c	-0.105837315
158	0xbc49b291	-0.01231064
159	0xbb8df081	-0.004331649
160	0x3d37ce50	0.04487449
161	0xbc7837e3	-0.015150043
162	0xbd1095af	-0.035299
163	0xbbc12384	-0.0058941264
164	0xbd5f2ec7	-0.05448797
165	0xbd73b356	-0.0594972
166	0x3d40660b	0.046972316
167	0xbda92588	-0.08259112
168	0xbd62d44b	-0.05537824
169	0x3d6f77b0	0.058463752
170	0xbbdf9f12	-0.0068243826
171	0xbcef76c4	-0.029231437
172	0x3c2a187a	0.010381812
173	0xbb9a9606	-0.004717591
174	0xbd4c61c8	-0.04989794
175	0x3cffe890	0.031238824
176	0xbdb4e08f	-0.08831894
177	0x3db00510	0.085947156
178	0xbdd89bfb	-0.10576626
179	0xbb9f0502	-0.004852892
180	0x3ca2bbfc	0.019865029
181	0xbd32f1f5	-0.04368778
182	0x3cbdb3d5	0.02315704
183	0xbd18a2ce	-0.037264638
184	0x3ca9c07e	0.02072167
185	0x3d5bf988	0.05370477
186	0x3da8fc59	0.082512565
187	0xbd1ce166	-0.038300894
188	0x3db49e07	0.08819204
189	0x3d335330	0.043780506
190	0xbd26ad3d	-0.040692557
191	0xbca12f42	-0.019675855
192	0xbcb11aa5	-0.02161915
193	0x3d208588	0.039189845
194	0xbb005011	-0.0019578973
195	0x3db466c3	0.08808663
196	0xbd3ff259	-0.04686198
197	0xbcdc4ca5	-0.026892016
198	0xbd7968eb	-0.060891073
199	0x3d33738e	0.043811373
200	0x3c4febda	0.012690509
201	0x3dca512b	0.09878763
202	0xbd19a3c9	-0.037509713
203	0x3d6d8682	0.057989605
204	0xbd5776fd	-0.05260371
205	0x3d63dfe6	0.055633448
206	0xbda6253d	-0.081125714
207	0xbdb58b2b	-0.08864435
208	0xbd266653	-0.040624928
209	0xbdb93517	-0.09043329
210	0xbd77e830	-0.060524166
211	0xbdce151f	-0.10062622
212	0xbc432398	-0.011910342
213	0x3d3538ea	0.04424373
214	0xbd2f4868	-0.04279366
215	0x3d753645	0.05986621
216	0x3cdb8aaf	0.026799528
217	0xbd87bcb0	-0.06627786
218	0xbd4d356f	-0.050099786
219	0xba92291e	-0.001115117
220	0x3d51d705	0.05123045
221	0x3e0888d3	0.13333444
222	0x3d1ccbbb	0.03828023
223	0xbca046e3	-0.019565051
224	0x3de410f1	0.11136044
225	0x3d8efe42	0.069820896
226	0xbd6b59a4	-0.057458535
227	0x3d99959c	0.07499239
228	0x3ddc6e64	0.10763243
229	0xbcea80c7	-0.028625859
230	0x3cea4380	0.02859664
231	0x3da33a81	0.07970143
232	0x3d7cf069	0.06175271
233	0xbd9bfb38	-0.076162755
234	0xbce95e86	-0.028487455
235	0x3c38475e	0.011247484
236	0x3d9936a4	0.07481125
237	0x3c04f2c9	0.008114525
238	0x3d5167a8	0.051124245
239	0x3d1accb9	0.037792895
240	0xbd74ecfa	-0.05979631
241	0x3d9618cb	0.07328948
242	0x3b84dad0	0.004054405
243	0xbd50e304	-0.05099775
244	0xbbfc54e7	-0.007700551
245	0x3ca52a75	0.020161847
246	0xbda5abea	-0.08089431
247	0x3d39220d	0.04519849
248	0xba9b969d	-0.0011870448
249	0xbc43842c	-0.011933368
250	0xbd88a1e3	-0.066715024
251	0xbdc0247e	-0.0938196
252	0xbdb77af9	-0.08959002
253	0x3d603572	0.05473847
254	0x3c93272b	0.017963013
255	0x3bbd890b	0.005784159

fc2.bias f4 [84]
0	0x3e1cdd85	0.15318878
1	0x3b81a107	0.0039559635
2	0xbca8f237	-0.02062331
3	0x3d0890ea	0.033341326
4	0xbd529c66	-0.051418684
5	0x3da1b682	0.07896139
6	0x3e3ebca2	0.18626645
7	0xbd583c1f	-0.05279171
8	0xbdd0e73f	-0.10200357
9	0xbd2297c3	-0.039695513
10	0x3cfe1b4d	0.031018877
11	0x3e8dd9f9	0.27705362
12	0x3db45e2f	0.088070266
13	0xbccd2abd	-0.025044793
14	0xbdc8c429	-0.098030396
15	0x3e832f77	0.2562215
16	0xbbe8e624	-0.007107513
17	0xbd448598	-0.047978967
18	0x3de8c310	0.1136533
19	0x3e21f42d	0.15815802
20	0xbbb85d6a	-0.00562637
21	0xbdbfed45	-0.093714274
22	0x3ce9a1a0	0.028519452
23	0xbd05853f	-0.032597777
24	0xbd9060fa	-0.07049747
25	0xbd3c44ce	-0.045964055
26	0xbda14d74	-0.07876101
27	0x3d701635	0.05861493
28	0xbd6c0f4e	-0.057631783
29	0xbb890d86	-0.0041825203
30	0x3e837c15	0.25680605
31	0xb97c8aad	-0.00024084254
32	0x3e2e40f3	0.17016964
33	0x3ddc9cea	0.107721165
34	0x3e532d56	0.20622763
35	0x3d88152e	0.06644665
36	0xbd9abdbe	-0.07555722
37	0x3cc939c3	0.024563676
38	0x3e779d8a	0.2418119
39	0xbdc7fbec	-0.09764847
40	0xbd419c4f	-0.047268208
41	0x3e48af55	0.19598134
42	0x3e8bf2b6	0.2733361
43	0x3e0d4c7b	0.13798706
44	0x3e14e1cc	0.1453926
45	0x3eb503e7	0.3535454
46	0x3e13558b	0.14388101
47	0x3cb676e5	0.02227349
48	0xbe093d7c	-0.1340236
49	0x3e3fd512	0.18733624
50	0x3e82f625	0.25578418
51	0xbdf6f683	-0.12058737
52	0xbdc3e165	-0.09564475
53	0xbe532787	-0.20620547
54	0x3d13b3bb	0.036060076
55	0x3d4b140b	0.04957966
56	0x3d1d3260	0.03837812
57	0x3e2ac972	0.16678408
58	0xbd523173	-0.05131669
59	0x3e97874f	0.2959542
60	0xbc920a25	-0.017827103
61	0x3c994d2a	0.018713553
62	0x3d751fb6	0.059844695
63	0x3dca0a0f	0.098652
64	0x3c5ddcb0	0.0135413855
65	0x3e83689d	0.2566575
66	0x3e25e662	0.16201165
67	0x3c6974d3	0.0142490445
68	0x3e173a71	0.14768387
69	0x3eb91758	0.36150622
70	0xbc17509a	-0.0092355255
71	0xbda567fb	-0.08076473
72	0x3d8d3c22	0.06896235
73	0x3de5964b	0.11210307
74	0x3aad97de	0.0013244112
75	0x3ea2dac4	0.3180753
76	0xbd4455f2	-0.047933526
77	0x3ea32411	0.31863454
78	0x3e0d222a	0.13782564
79	0xbcff616c	-0.031174384
80	0x3ea238ca	0.31683952
81	0x3bff23e0	0.007786259
82	0xbda5edd8	-0.08102006
83	0xbd4aa55b	-0.0494741

fc3.weight f4 [10, 84]
0	0x3e5fa0a3	0.21838622
1	0x3dbc78bb	0.09202715
2	0x3cb8c86c	0.022556506
3	0x3c183a96	0.009291312
4	0xbc4795b6	-0.01218169
5	0xbd98a218	-0.07452792
6	0xbe37f2ba	-0.17963687
7	0x3b86cfa6	0.004114109
8	0x3d6a265f	0.0571655
9	0xbdce44d8	-0.10071725
10	0xbc8ba8dd	-0.017048294
11	0xbe849242	-0.25892836
12	0x3d946fce	0.072478876
13	0xbdfba374	-0.122870356
14	0xbe189748	-0.14901459
15	0x3bdfa017	0.006824504
16	0xbd4045c6	-0.04694154
17	0x3e7e5875	0.24838431
18	0xbd1887eb	-0.037238996
19	0x3ccdf3d6	0.025140684
20	0xbcfa635a	-0.030564953
21	0xbd25447a	-0.040348507
22	0x3d42c424	0.047550336
23	0xbd197d1f	-0.03747284
24	0xbc7424bf	-0.014901339
25	0xbe1b3fb3	-0.15161018
26	0x3dccd3cc	0.100013345
27	0xbe6a0d8d	-0.22856732
28	0x3d857670	0.06516731
29	0x3e440392	0.19141987
30	0x3e8556dd	0.26042834
31	0xbd417b76	-0.047236882
32	0xba9e93b6	-0.0012098465
33	0x3cb8245f	0.02247828
34	0xbe1428cb	-0.14468686
35	0x3e35ce53	0.17754488
36	0xbc030b6b	-0.007998328
37	0xbe46f695	-0.19430001
38	0x3de8b6ae	0.113629684
39	0xbdb8fde0	-0.09032798
40	0x3dfa9877	0.122361116
41	0x3e05faa6	0.13083896
42	0x3de07066	0.10958938
43	0xbe2e4723	-0.17019324
44	0x3e9bb049	0.30407932
45	0xbe5aa3d2	-0.21351555
46	0xbe188877	-0.14895807
47	0x3ccfc601	0.02536297
48	0x3d21cb51	0.03950054
49	0xbdd9bec3	-0.10632088
50	0x3e5be2fd	0.21473308
51	0x3e199fd0	0.1500237
52	0xbdaf6e58	-0.08565968
53	0x3e439fa3	0.19103865
54	0xbd208689	-0.039190803
55	0xbd8079e7	-0.06273251
56	0x3d7179c0	0.058954
57	0x3d3f792e	0.046746425
58	0xbdb97625	-0.090557374
59	0x3e162032	0.14660719
60	0x3e6300f1	0.22168328
61	0x3d5aefe4	0.053451434
62	0xbdd83310	-0.105566144
63	0x3d2f018a	0.042726077
64	0xbd9dd588	-0.077067435
65	0x3dd1d170	0.10245025
66	0xbdfa9dd0	-0.122371316
67	0xbdca04a9	-0.0986417
68	0x3e0198d2	0.12655953
69	0xbe479a7a	-0.19492522
70	0xbcf779fb	-0.030209532
71	0x3e298c0e	0.16557333
72	0x3d928cb2	0.07155742
73	0x3e6022ed	0.21888323
74	0xbd712e4a	-0.058882035
75	0xbda8ab58	-0.08235806
76	0xbda24bab	-0.07924589
77	0xbd8f0241	-0.06982852
78	0x3da49137	0.0803551
79	0xbddeb5ea	-0.10874541
80	0xbe5bd916	-0.2146953
81	0x3e12bfb3	0.1433094
82	0x3e429fc9	0.19006266
83	0xbd97bf15	-0.07409493
84	0xbe4d7a4d	-0.20066185
85	0x3e65e4ed	0.2245061
86	0xbd45ccaa	-0.048290886
87	0x3ccd67f2	0.025073979
88	0x3db37b35	0.08763734
89	0xbd65933b	-0.056048613
90	0xbe9746e8	-0.29546285
91	0x3becb262	0.0072234133
92	0x3cbb0fcc	0.022834681
93	0xbddc3125	-0.10751561
94	0xbddb1772	-0.10697831
95	0xbd4c62bf	-0.04989886
96	0xbd258742	-0.040412195
97	0x3cb144a9	0.021639185
98	0x3e0c22a0	0.13685083
99	0xbe7fb0b2	-0.24969748
100	0xbb8aba74	-0.0042336527
101	0xbdd9f3d8	-0.10642213
102	0xbdf7c839	-0.12098736
103	0x3dd574f0	0.10422695
104	0x3c4498bc	0.011999305
105	0x3dbffff9	0.09374995
106	0x3e21704e	0.15765497
107	0xbd45ff7b	-0.04833935
108	0xbe0070a3	-0.12542967
109	0xbd88ec9b	-0.06685754
110	0x3dbcc7aa	0.092177704
111	0x3e06c314	0.13160354
112	0x3e0984a1	0.134295
113	0xbdfca143	-0.12335446
114	0xbe55d242	-0.20880988
115	0x3c5da92d	0.013529104
116	0xbede33e0	-0.43398952
117	0xbc039296	-0.008030554
118	0xbdc52854	-0.096268326
119	0xbcadf57b	-0.021235218
120	0x3d904769	0.070448704
121	0xbe5c6120	-0.21521425
122	0xbddf2c90	-0.108971715
123	0x3daeef82	0.08541776
124	0x3e94f0cb	0.2908996
125	0xbd360f3c	-0.044448122
126	0xbdab25cd	-0.08356819
127	0x3d03c547	0.03217056
128	0xbb94ae01	-0.0045373444
129	0xbe0b9dc9	-0.13634409
130	0xbe3e1411	-0.18562342
131	0x3ecc91f6	0.3995511
132	0x3d39684a	0.045265473
133	0xbda4b0b6	-0.080415174
134	0xbdf12168	-0.1177395
135	0x3ebc5ab6	0.36787957
136	0x3e26db57	0.16294609
137	0x3e5aedfa	0.21379843
138	0xbda3db5f	-0.08000826
139	0x3d405775	0.046958406
140	0xbd488fe4	-0.04896535
141	0xbe8128cf	-0.25226447
142	0x3d1dc400	0.038517
143	0xbc917a22	-0.017758433
144	0x3da191b9	0.078891225
145	0x3d3b8e38	0.045789927
146	0x3cd8f10c	0.026482128
147	0x3d673ecd	0.056456376
148	0xbe05236e	-0.13001797
149	0xbdf63ebf	-0.120236866
150	0xbd54dfe8	-0.051971346
151	0x3db1f607	0.08689504
152	0x3e12757f	0.14302634
153	0xbd7d55b3	-0.061849307
154	0xbda5f4f5	-0.081033625
155	0x3e8b8e9d	0.27257243
156	0x3e0fde02	0.14049533
157	0x3d96668e	0.073437795
158	0xbe51c9b5	-0.20487101
159	0xbd46b424	-0.04851164
160	0x3ed56359	0.4167736
161	0x3db1c3f2	0.08679952
162	0x3bf941d3	0.007606724
163	0x3dde86bf	0.108655445
164	0xbe1ac8e9	-0.15115704
165	0xbe494189	-0.19653906
166	0xbdac58b2	-0.08415355
167	0x3ca16aff	0.01970434
168	0x3e84354c	0.25821912
169	0xbdd52ede	-0.1040933
170	0xbdbc2d9d	-0.091883875
171	0xba1b3509	-0.00059206836
172	0xbb582689	-0.0032981953
173	0x3da69079	0.08133025
174	0x3e2f1b2b	0.17100208
175	0x3d97d416	0.07413499
176	0xbd9436ec	-0.07237038
177	0xbdc0c16a	-0.09411891
178	0x3dd5cfd4	0.10440031
179	0xbe3399a6	-0.17539081
180	0x3db0f493	0.08640399
181	0xbd04a226	-0.0323812
182	0x3dee2296	0.116276905
183	0x3e39ee75	0.1815737
184	0x3c9d5886	0.01920725
185	0x3da87ee8	0.082273304
186	0x3e5d76ef	0.21627401
187	0x3bd22be8	0.0064139254
188	0xbe1cfa04	-0.15329748
189	0xba811761	-0.0009848886
190	0xbdb97445	-0.0905538
191	0x3cc41c41	0.023939254
192	0xbd0ac78e	-0.033881716
193	0x3e2d9701	0.16952135
194	0x3dbd5f24	0.09246662
195	0x3ca618f8	0.020275578
196	0xbdb43da7	-0.08800822
197	0x3cdc35f6	0.0268812
198	0x3e0b7aad	0.13621016
199	0x3d5ca8a4	0.053871766
200	0x3e8d40bf	0.2758846
201	0xbddbfeb6	-0.10741942
202	0x3d6e44d3	0.058171105
203	0x3c5a0d40	0.013308823
204	0xbcd529e7	-0.026020957
205	0xbdf3de96	-0.11907689
206	0xbae2a295	-0.0017290885
207	0x3d95abd4	0.07308164
208	0xbd8acf73	-0.06777849
209	0xbe0574ef	-0.13032888
210	0x3e881a4c	0.26582563
211	0xbe89a4c1	-0.2688351
212	0x3ea7b44b	0.3275474
213	0xbc7db323	-0.015484604
214	0xbd30a12d	-0.04312246
215	0xbc91cb52	-0.017797146
216	0x3e5b27a2	0.21401837
217	0x3dd95b13	0.10613074
218	0xbd9a505a	-0.07534857
219	0x3cd223da	0.025651861
220	0x3ded7563	0.11594655
221	0xbc4ff6dc	-0.012693133
222	0x3c4c3eaf	0.012466117
223	0x3d5af8ff	0.053460117
224	0x3d9d8902	0.07692148
225	0x3e4ae20a	0.1981279
226	0xbcecb7cd	-0.028896237
227	0x3d8cc9cc	0.06874427
228	0xbe057e0e	-0.13036367
229	0x3e10523e	0.14093873
230	0x3d334856	0.043770157
231	0x3d2acc40	0.041698694
232	0x3d67052a	0.05640141
233	0xbcfbaef7	-0.030723078
234	0x3d8591e2	0.065219656
235	0xbdec434c	-0.11536273
236	0xbe48c169	-0.1960503
237	0x3e18a70f	0.14907478
238	0x3d501a6a	0.05080644
239	0xbe1a5c80	-0.15074348
240	0xbdbd585a	-0.09245367
241	0xbd31f4c2	-0.04344631
242	0x3dea11e7	0.11429196
243	0x3e2d6f6a	0.16937032
244	0xbe4d451b	-0.20045893
245	0xbce303b3	-0.027711725
246	0xbdf00629	-0.11719925
247	0xbd00a49c	-0.031406984
248	0x3dc33b0e	0.09532748
249	0x3d64fa49	0.055902753
250	0xbe37fddd	-0.17967935
251	0xbd0fcf47	-0.035109784
252	0xbdaab271	-0.08334816
253	0xbddfaa3e	-0.10921143
254	0x3bf4de6c	0.007472804
255	0xbd803884	-0.062607795

fc3.bias f4 [10]
0	0xbdee1029	-0.11624176
1	0xbf0ec04f	-0.5576219
2	0x3e046e78	0.12932765
3	0x3e16a8bf	0.14712809
4	0x3f1440de	0.5791148
5	0xbe204b8e	-0.15653822
6	0x3e3bad76	0.18327889
7	0xbe324281	-0.17408182
8	0x3e9a82dc	0.30177963
9	0xbe68a5af	-0.22719453
